gpu_info:
[32mcuda.is_available:True
[32mcuda.device_count:1
[32mcuda.device_name:NVIDIA GeForce RTX 3050 Laptop GPU
[32mcuda.current_device:0
datasets_info:
[32mtrain_inputs:2816	train_labels:2816
[32mval_inputs:705	val_labels:705
[32mlabel_map:{'ç•ªèŒ„å¶æ–‘ç—…': 0, 'è‹¹æœé»‘æ˜Ÿç—…': 1, 'è‘¡è„é»‘è…ç—…': 2}
åŠ è½½é¢„è®­ç»ƒæ¨¡å‹
net_structure:
----------------------------------------------------------------
        Layer (type)               Output Shape         Param #
================================================================
            Conv2d-1         [-1, 16, 222, 222]             448
         MaxPool2d-2         [-1, 16, 111, 111]               0
            Conv2d-3         [-1, 32, 109, 109]           4,640
         MaxPool2d-4           [-1, 32, 54, 54]               0
            Conv2d-5           [-1, 64, 52, 52]          18,496
         MaxPool2d-6           [-1, 64, 26, 26]               0
            Linear-7                   [-1, 64]       2,768,960
            Linear-8                    [-1, 3]             195
================================================================
Total params: 2,792,739
Trainable params: 2,792,739
Non-trainable params: 0
----------------------------------------------------------------
Input size (MB): 0.57
Forward/backward pass size (MB): 12.78
Params size (MB): 10.65
Estimated Total Size (MB): 24.01
----------------------------------------------------------------
[32mNet(
[32m  (conv1): Conv2d(3, 16, kernel_size=(3, 3), stride=(1, 1))
…
